…
tion_count":21,"metadata":{"colab":{"base_uri":"https://localhost:8080/"},"executionInfo":{"elapsed":1360,"status":"ok","timestamp":1652386232505,"user":{"displayName":"CUK NS Lab","userId":"13700665659787819432"},"user_tz":-540},"id":"iDCnUQWaKQUa","outputId":"d4e339e1-83d4-4a9c-95ed-65f712e9c092"},"outputs":[{"output_type":"stream","name":"stdout","text":["_________________________________________________________________\n","Layer (type)                 Output Shape              Param #   \n","=================================================================\n","input_1 (InputLayer)         (None, 200, 200, 3)       0         \n","_________________________________________________________________\n","block1_conv1 (Conv2D)        (None, 200, 200, 64)      1792      \n","_________________________________________________________________\n","block1_conv2 (Conv2D)        (None, 200, 200, 64)      36928     \n","_________________________________________________________________\n","block1_pool (MaxPooling2D)   (None, 100, 100, 64)      0         \n","_________________________________________________________________\n","block2_conv1 (Conv2D)        (None, 100, 100, 128)     73856     \n","_________________________________________________________________\n","block2_conv2 (Conv2D)        (None, 100, 100, 128)     147584    \n","_________________________________________________________________\n","block2_pool (MaxPooling2D)   (None, 50, 50, 128)       0         \n","_________________________________________________________________\n","block3_conv1 (Conv2D)        (None, 50, 50, 256)       295168    \n","_________________________________________________________________\n","block3_conv2 (Conv2D)        (None, 50, 50, 256)       590080    \n","_________________________________________________________________\n","block3_conv3 (Conv2D)        (None, 50, 50, 256)       590080    \n","_________________________________________________________________\n","block3_pool (MaxPooling2D)   (None, 25, 25, 256)       0         \n","_________________________________________________________________\n","block4_conv1 (Conv2D)        (None, 25, 25, 512)       1180160   \n","_________________________________________________________________\n","block4_conv2 (Conv2D)        (None, 25, 25, 512)       2359808   \n","_________________________________________________________________\n","block4_conv3 (Conv2D)        (None, 25, 25, 512)       2359808   \n","_________________________________________________________________\n","block4_pool (MaxPooling2D)   (None, 12, 12, 512)       0         \n","_________________________________________________________________\n","block5_conv1 (Conv2D)        (None, 12, 12, 512)       2359808   \n","_________________________________________________________________\n","block5_conv2 (Conv2D)        (None, 12, 12, 512)       2359808   \n","_________________________________________________________________\n","block5_conv3 (Conv2D)        (None, 12, 12, 512)       2359808   \n","_________________________________________________________________\n","block5_pool (MaxPooling2D)   (None, 6, 6, 512)         0         \n","=================================================================\n","Total params: 14,714,688\n","Trainable params: 7,079,424\n","Non-trainable params: 7,635,264\n","_________________________________________________________________\n","0 input_1 False\n","1 block1_conv1 False\n","2 block1_conv2 False\n","3 block1_pool False\n","4 block2_conv1 False\n","5 block2_conv2 False\n","6 blo
…
